…
2024-09-05 01:47:29,448 - INFO - Processing fold 3/5
2024-09-05 01:47:29,458 - INFO - Processing fold 4/5
2024-09-05 01:47:29,468 - INFO - Processing fold 5/5
2024-09-05 01:47:29,472 - INFO - Size of the train dataset: 85649
2024-09-05 01:47:29,472 - INFO - Size of the valid dataset: 21529
2024-09-05 01:53:09,384 - INFO - Batch data shape: torch.Size([2048, 1, 37, 3000])
2024-09-05 01:53:09,386 - INFO - Batch labels shape: torch.Size([2048, 6])
2024-09-05 01:53:22,093 - INFO - took 352.6190836429596 seconds to display dataloader info.
2024-09-05 01:53:22,911 - INFO - EEGNetTransformer(
  (conv1): Conv2d(1, 8, kernel_size=(1, 64), stride=(1, 1), padding=same, bias=False)
  (batchnorm1): BatchNorm2d(8, eps=1e-05, momentum=0.1, affine=True, track_running_stats=True)
  (depthwiseConv): Conv2d(8, 16, kernel_size=(37, 1), stride=(1, 1), groups=8, bias=False)
  (batchnorm2): BatchNorm2d(16, eps=1e-05, momentum=0.1, affine=True, track_running_stats=True)
  (activation1): ELU(alpha=1.0)
  (avg_pool1): AvgPool2d(kernel_size=(1, 4), stride=(1, 4), padding=0)
  (dropout1): Dropout(p=0.5, inplace=False)
  (separableConv): Conv2d(16, 16, kernel_size=(1, 16), stride=(1, 1), padding=same, bias=False)
  (batchnorm3): BatchNorm2d(16, eps=1e-05, momentum=0.1, affine=True, track_running_stats=True)
  (activation2): ELU(alpha=1.0)
  (avg_pool2): AvgPool2d(kernel_size=(1, 8), stride=(1, 8), padding=0)
  (dropout2): Dropout(p=0.5, inplace=False)
  (flatten): Flatten(start_dim=1, end_dim=-1)
  (transformer_encoder): TransformerEncoder(
    (layers): ModuleList(
      (0-1): 2 x TransformerEncoderLayer(
        (self_attn): MultiheadAttention(
          (out_proj): NonDynamicallyQuantizableLinear(in_features=1488, out_features=1488, bias=True)
        )
        (linear1): Linear(in_features=1488, out_features=2048, bias=True)
        (dropout): Dropout(p=0.5, inplace=False)
        (linear2): Linear(in_features=2048, out_features=1488, bias=True)
        (norm1): LayerNorm((1488,), eps=1e-05, elementwise_affine=True)
        (norm2): LayerNorm((1488,), eps=1e-05, elementwise_affine=True)
        (dropout1): Dropout(p=0.5, inplace=False)
        (dropout2): Dropout(p=0.5, inplace=False)
      )
    )
  )
  (dense): Linear(in_features=1488, out_features=128, bias=True)
  (fc_output): Linear(in_features=128, out_features=6, bias=True)
  (log_softmax): LogSoftmax(dim=1)
)
2024-09-05 01:53:22,912 - INFO - Training EEG Model.
2024-09-05 01:53:22,920 - INFO - Starting Epoch 1/100
2024-09-05 02:11:14,790 - INFO - Epoch 1/100 - Train Loss: 0.00090, Reg Loss: 0.00375, Train Accuracy: 19.14909%
2024-09-05 02:11:14,790 - INFO - Epoch 1/100 - Valid Loss: 0.00091, Valid Accuracy: 19.63398%
2024-09-05 02:11:14,790 - INFO - Learning Rate: 0.002000
…
