…
2024-09-29 14:31:52,764 - INFO - Processing fold 3/5
2024-09-29 14:31:52,766 - INFO - Processing fold 4/5
2024-09-29 14:31:52,768 - INFO - Processing fold 5/5
2024-09-29 14:31:52,773 - INFO - Size of the train dataset: 847
2024-09-29 14:31:52,773 - INFO - Size of the valid dataset: 272
2024-09-29 14:32:01,058 - INFO - Batch data shape: torch.Size([32, 1, 37, 3000])
2024-09-29 14:32:01,059 - INFO - Batch labels shape: torch.Size([32, 6])
2024-09-29 14:32:01,397 - INFO - took 8.621931314468384 seconds to display dataloader info.
2024-09-29 14:32:01,400 - INFO - Model Architecture: DeepConvNet(
  (conv1): Conv2d(1, 25, kernel_size=(1, 10), stride=(1, 1), bias=False)
  (conv2): Conv2d(25, 25, kernel_size=(37, 1), stride=(1, 1), bias=False)
  (bn1): BatchNorm2d(25, eps=1e-05, momentum=0.1, affine=True, track_running_stats=True)
  (pool1): MaxPool2d(kernel_size=(1, 4), stride=(1, 4), padding=0, dilation=1, ceil_mode=False)
  (drop1): Dropout(p=0.5, inplace=False)
  (conv3): Conv2d(25, 50, kernel_size=(1, 10), stride=(1, 1), bias=False)
  (bn2): BatchNorm2d(50, eps=1e-05, momentum=0.1, affine=True, track_running_stats=True)
  (pool2): MaxPool2d(kernel_size=(1, 4), stride=(1, 4), padding=0, dilation=1, ceil_mode=False)
  (drop2): Dropout(p=0.5, inplace=False)
  (conv4): Conv2d(50, 100, kernel_size=(1, 10), stride=(1, 1), bias=False)
  (bn3): BatchNorm2d(100, eps=1e-05, momentum=0.1, affine=True, track_running_stats=True)
  (pool3): MaxPool2d(kernel_size=(1, 4), stride=(1, 4), padding=0, dilation=1, ceil_mode=False)
  (drop3): Dropout(p=0.5, inplace=False)
  (conv5): Conv2d(100, 200, kernel_size=(1, 10), stride=(1, 1), bias=False)
  (bn4): BatchNorm2d(200, eps=1e-05, momentum=0.1, affine=True, track_running_stats=True)
  (pool4): MaxPool2d(kernel_size=(1, 4), stride=(1, 4), padding=0, dilation=1, ceil_mode=False)
  (drop4): Dropout(p=0.5, inplace=False)
  (fc1): Linear(in_features=1600, out_features=6, bias=True)
  (log_softmax): LogSoftmax(dim=1)
)
2024-09-29 14:32:01,888 - INFO - Inside training loop
2024-09-29 14:32:01,889 - INFO - Starting Epoch 1/40
2024-09-29 14:32:01,891 - INFO - Training....
