…
2024-09-26 16:57:34,567 - INFO - Processing fold 3/5
2024-09-26 16:57:34,576 - INFO - Processing fold 4/5
2024-09-26 16:57:34,585 - INFO - Processing fold 5/5
2024-09-26 16:57:34,589 - INFO - Size of the train dataset: 85649
2024-09-26 16:57:34,589 - INFO - Size of the valid dataset: 21529
2024-09-26 17:04:05,559 - INFO - Batch data shape: torch.Size([1024, 1, 37, 3000])
2024-09-26 17:04:05,560 - INFO - Batch labels shape: torch.Size([1024, 6])
2024-09-26 17:04:10,590 - INFO - took 395.9982981681824 seconds to display dataloader info.
2024-09-26 17:04:10,596 - INFO - Model Architecture: DeepConvNet(
  (conv1): Conv2d(1, 25, kernel_size=(1, 10), stride=(1, 1), bias=False)
  (conv2): Conv2d(25, 25, kernel_size=(37, 1), stride=(1, 1), bias=False)
  (bn1): BatchNorm2d(25, eps=1e-05, momentum=0.1, affine=True, track_running_stats=True)
  (pool1): MaxPool2d(kernel_size=(1, 4), stride=(1, 4), padding=0, dilation=1, ceil_mode=False)
  (drop1): Dropout(p=0.5, inplace=False)
  (conv3): Conv2d(25, 50, kernel_size=(1, 10), stride=(1, 1), bias=False)
  (bn2): BatchNorm2d(50, eps=1e-05, momentum=0.1, affine=True, track_running_stats=True)
  (pool2): MaxPool2d(kernel_size=(1, 4), stride=(1, 4), padding=0, dilation=1, ceil_mode=False)
  (drop2): Dropout(p=0.5, inplace=False)
  (conv4): Conv2d(50, 100, kernel_size=(1, 10), stride=(1, 1), bias=False)
  (bn3): BatchNorm2d(100, eps=1e-05, momentum=0.1, affine=True, track_running_stats=True)
  (pool3): MaxPool2d(kernel_size=(1, 4), stride=(1, 4), padding=0, dilation=1, ceil_mode=False)
  (drop3): Dropout(p=0.5, inplace=False)
  (conv5): Conv2d(100, 200, kernel_size=(1, 10), stride=(1, 1), bias=False)
  (bn4): BatchNorm2d(200, eps=1e-05, momentum=0.1, affine=True, track_running_stats=True)
  (pool4): MaxPool2d(kernel_size=(1, 4), stride=(1, 4), padding=0, dilation=1, ceil_mode=False)
  (drop4): Dropout(p=0.5, inplace=False)
  (fc1): Linear(in_features=1600, out_features=6, bias=True)
  (log_softmax): LogSoftmax(dim=1)
)
2024-09-26 17:04:11,063 - INFO - Starting Epoch 1/160
2024-09-26 19:11:47,161 - INFO - Epoch 1/160 - Train Loss: 1.78759, Train Accuracy: 29.86258%
2024-09-26 19:11:47,162 - INFO - Epoch 1/160 - Valid Loss: 1.60852, Valid Accuracy: 33.24818%
2024-09-26 19:11:47,163 - INFO - Validation loss dropped at epoch 1. Starting grid search...
…
